bellman_update_heuristic.pth (torch, 17036 bytes, 7 tensors)

fc1.weight f4 [64, 11]
00000000: 3522 363d a03f 893d 5d75 ea3c 5cad 653d
00000010: d96f 173e 477b b13d 2368 223e 9b81 bc3b
00000020: 135e 923c 83c0 b3bc 62c8 253e 9619 9f3d
00000030: 0bed 023e fc21 77bc a61b 473e cf6d 7bba
00000040: a274 903e 5935 373b 63d3 aa3d 8972 a33d
00000050: 1a2f 933e e9f8 353e 912c aabc 57f6 5f3e
00000060: 72e8 93bb 45c0 543e 1e85 c23c bd5e 70bd
00000070: f4e1 613e 4aca dc3d 9a2d d13d e70c 143e
00000080: 5d83 273d 9de7 0d3e 7b57 5d3e 7fd7 b53c
00000090: 2053 7b3e 94b7 febc 0f09 3c3e 62f3 993d
000000a0: 35d0 b4bc 622d 703d dbe9 923d 013f 383d
000000b0: d0f4 113e c56a 083d 913c cd3c b346 083e
000000c0: a90d 2a3e 1d7a de3d a62e 823c a99d 0fbd
000000d0: 589e cf3c 95e8 003e 73c3 0d3e 6e7f 2a3e
000000e0: 31ba 483e 1dea 9d3d 057d 5d3e 4ea3 66bc
000000f0: e3cf 65bd f4d3 df3c 6000 77bd 87a3 803e
00000100: 84c0 353e c246 31bc cbc3 c8bd 570d 1ebe
00000110: 226a 8b3d b61f a0bd 9b05 1ebe 9a86 93be
00000120: ef19 aebd 7f51 1ebd cd9a 243e 2e1a 47bd
00000130: 16b5 c83c 9879 213e 3db3 303e 5d5b dc3d
00000140: 8d40 413e a4c7 c93d 3d23 993d 9f02 2abd
00000150: e083 31bd 86ce 943d b297 b03d a244 493e
00000160: 6e90 313e 3e9c 8bbd 53f3 98bd 5502 6a3e
00000170: 017a b13d c02d 8c3c 95ae 3e3e 4818 6a3e
00000180: 6e7a 333e d6b8 743d c03a 8a3c a2c8 1a3e
00000190: 8d09 b63d c8f7 933e 0687 e7bb 116c 833e
000001a0: a83f e1bd a2ea 863e 6cba 1a3e 9522 1a3e
000001b0: 15f6 fdbd 52ea f43c f5b0 28bd 68e7 223e
000001c0: f54e f13d cd4b 4d3d 3cd8 463e af4a 1e3e
000001d0: 56d9 073e f46a 313e 4590 013e ceef 9dbd
000001e0: 6d1c 083e f935 a23e 6582 9d3e 99a7 9a3e
000001f0: 60ef a13e 8054 9e3e bfc0 983e d65b 9c3e
00000200: 262e 993e 69d3 a13e b214 9d3e b49a 983e
00000210: 0f8b 183d 2a16 043e 8e8c 1bbd d91a b93d
00000220: 7a02 d73d bf70 2b3e 8a64 833d ee5c 37bc
00000230: e9fd ab3d 6a68 243e 1104 afbc e9ff 64be
00000240: f409 b0be 9233 a8be c9dd e13d fa69 e23d
00000250: 5789 303e f2f6 57be bf4b 89be 3680 62be
00000260: dca6 073e 0417 883b d511 a5be 2f29 aa3c
00000270: 6a1b 89be ed99 6e3e cdc2 b9bc 8c29 59be
00000280: 1ed5 43bd a1c6 bd3d a886 9b3d a575 99be
00000290: ea0d a1be 7173 81be 1842 4f3d c001 40bd
000002a0: 31c4 94be 6010 da3c 965e 9cbd e8c6 60be
000002b0: 72c1 ccbd 1821 04bd 10a9 023e b8ca 43bd
000002c0: ccb2 69be 3f64 91be 78fd 313e 2723 8dbe
000002d0: b00b d2bd 40f2 173c 7a88 183e 58c0 423e
000002e0: 8bff 92be 6f85 4bbe 139a 4ebe 81a5 dd3d
000002f0: 1b88 433e 4425 92bc 747b 743e 20aa 623e
00000300: 1339 3e3d 2107 fbbd 3a94 2e3e 8dc8 573e
00000310: 4044 ea3d 652c 9abd 49d6 233e 91bb 4d3e
00000320: bafe c63c 7a5a 9abe 3b2d 26be 3cd8 dd3d
00000330: 8f24 8cbe 7cdf e23c 3227 37be a0ba c6be
00000340: dc52 45be 36b1 cf3a adce ef3d 326b 373d
00000350: adad 293e 7963 153d 993c bd3d 8f04 a3bc
00000360: 6e9e 413e 2925 df3c c11c 643e 5ece 923d
00000370: 87ab 743d 4bc3 fd3d 5ddf 09bd 27ca 653c
00000380: c842 763e 2667 23bb cb61 753e aaf7 fd3d
00000390: f562 473e a4fa 823c 9d1b cc3c a421 62bd
000003a0: 1f9c 2a3e d6e9 d93c 3346 d53d c5be c83d
000003b0: 9dc2 233e e375 1e3e 7696 973d bb86 973c
000003c0: 0b7e dc3d 5fb5 233e 1c27 493e 1c7e 5c3e
000003d0: 915a 4c3e 8b1b 5a3e 4fde 503e 91ab 513e
000003e0: 3fa0 593e 8421 4b3e f215 4f3e 74ff 543e
000003f0: 9b50 543e f1c6 343d 6a32 0a3d 9c78 c93d
0.044466216 0.06701589 0.028620416 0.05607353 0.1478876 0.086660914 0.15860038 0.005752755
0.017867124 -0.021942383 0.16189721 0.07768552 0.12785737 -0.015083786 0.19444141 -0.0009591253
0.28213984 0.0027955382 0.083411 0.0798083 0.28746873 0.17770733 -0.020773204 0.21871315
-0.0045137936 0.2077647 0.023745116 -0.0586841 0.2205885 0.10780771 0.10213776 0.14458047
0.040896762 0.13857885 0.21615402 0.022197483 0.24543428 -0.031093396 0.1836283 0.07517125
-0.022071937 0.05863703 0.07173511 0.04498196 0.14253545 0.03330495 0.025053294 0.1330822
0.16606773 0.10863135 0.015891384 -0.035062466 0.025344059 0.12588723 0.13844089 0.16650173
0.19602276 0.07710669 0.21629722 -0.014077021 -0.05610646 0.027322747 -0.060303092 0.2512476
0.1774922 -0.010820093 -0.098029695 -0.15434776 0.068073526 -0.078185484 -0.15431826 -0.2881363
-0.0850104 -0.03865194 0.16074677 -0.04860895 0.024500411 0.1576904 0.17255874 0.10759614
0.1887228 0.098525316 0.07477424 -0.041506406 -0.043338656 0.07265954 0.086226836 0.19655088
0.17340252 -0.0681691 -0.074682854 0.22852452 0.086658485 0.017111659 0.18621285 0.22860825
0.17527172 0.059746586 0.016873717 0.15115598 0.088885404 0.2889998 -0.0070656566 0.25668386
-0.109984696 0.26350886 0.15110177 0.15052254 -0.12400452 0.029896889 -0.041184384 0.15908587
0.11782638 0.050121117 0.19418424 0.15458177 0.13266501 0.17325956 0.1265269 -0.07711755
0.13292094 0.31681803 0.30763546 0.30205992 0.3162794 0.30923843 0.29834554 0.30538815
0.2991802 0.31606606 0.30679852 0.2980553 0.03724199 0.1289908 -0.03797584 0.09038324
0.10498519 0.16742228 0.06415661 -0.01119159 0.08398039 0.16055456 -0.021364244 -0.22363247
-0.34382594 -0.32851845 0.1102863 0.1105537 0.17239891 -0.21090296 -0.26815602 -0.22119221
0.13247246 0.0041531343 -0.32240167 0.020771591 -0.26778728 0.23300906 -0.022675896 -0.21207255
-0.047810666 0.09266401 0.07594043 -0.29972568 -0.31455928 -0.25283387 0.05060014 -0.04687667
-0.29055932 0.026619136 -0.07635228 -0.21950877 -0.09997834 -0.032258123 0.12759805 -0.04780075
-0.22822112 -0.28396794 0.17381847 -0.27565882 -0.102561355 0.0092740655 0.14895812 0.19018686
-0.2871059 -0.1987512 -0.20175962 0.10822583 0.19094889 -0.017840035 0.23875219 0.2213521
0.04644115 -0.12257219 0.17048731 0.21072598 0.11438799 -0.07527999 0.15999712 0.20091082
0.024291385 -0.30147153 -0.16228192 0.10832259 -0.27371642 0.027694456 -0.17886046 -0.3881426
-0.1926989 0.001584566 0.11709342 0.044779964 0.16570158 0.036471818 0.09240074 -0.019899635
0.18908092 0.027239399 0.22276594 0.07168268 0.059733894 0.12390765 -0.03366028 0.014025248
0.24048913 -0.0024933307 0.23963086 0.12400754 0.19471343 0.015988655 0.02491551 -0.055207863
0.16661118 0.02660076 0.1041378 0.098020114 0.15992208 0.15474658 0.07401745 0.018496862
0.10766228 0.15987156 0.19643825 0.21532482 0.19956423 0.2129957 0.20397304 0.20475604
0.21252535 0.19837004 0.20223215 0.20800573 0.20733874 0.044135038 0.033739485 0.098374575

fc1.bias f4 [64]
00000000: b0cc b9bc 5d47 66bd b9f7 f2bd 6d36 a33d
00000010: 9c30 1f3e 8776 933d 603b b93d c72f 1e3d
00000020: 5211 e23d 29e5 cf3c 1f50 713e 4610 a13e
00000030: 273c ce3d d828 0e3c d8ce 053e 081c 663e
00000040: 5033 023d f76f 80bd fafc d2bd 5080 1bbe
00000050: fb13 8ebd 5bde 0c3d 382c f3bd 6f64 0bbe
00000060: d1b3 86bb 4e9f c0bd 843e d8bd 5ce1 3ebe
00000070: 4cfc f83d 0255 4f3e 53fd 4abe fd12 003e
00000080: 3345 58be 6f28 5a3e e9ec 643e 7b53 cd3e
00000090: ee39 123e 3d09 32be 54f5 9d3e 8110 463e
000000a0: e4a6 8c3e 8346 2a3e 4d0b c7bd a58b 823e
000000b0: 768c 993e e25c 783e 1f44 49bd e72d c13e
000000c0: 7354 82bd 0ed9 d1bd 5d48 d13d bde0 2c3e
000000d0: 2584 1cba 8e8c 9a3e f5c1 893e 91e7 36be
000000e0: b66d f73d 3d5c 793e c32f c93d b590 b63e
000000f0: edfe 533e 4b3c 56be 10aa 00be ce1d 85bd
-0.02268061 -0.0562204 -0.118636556 0.07969365 0.15545887 0.07200342 0.09044528 0.038619783
0.1103846 0.025377827 0.2356572 0.31457728 0.10070067 0.00867673 0.13067186 0.2247163
0.031787217 -0.062713556 -0.10302158 -0.15185666 -0.06937405 0.034391742 -0.118736684 -0.13612531
-0.0041107913 -0.09405385 -0.10558799 -0.18640655 0.12157497 0.20247272 -0.19823198 0.12507243
-0.21120147 0.21304487 0.22355999 0.40102753 0.14279911 -0.17386337 0.30851233 0.19342233
0.27471077 0.1662846 -0.09718952 0.25497165 0.29989976 0.24254182 -0.04913723 0.37730333
-0.06363764 -0.10246478 0.1021888 0.16882606 -0.0005970619 0.3018536 0.2690579 -0.17861773
0.120814726 0.24351592 0.09823563 0.35657278 0.20702715 -0.20921437 -0.12564874 -0.064998254

fc2.weight f4 [32, 64]
00000000: b091 653e d898 fc3d 6e6b 323e 7075 283e
00000010: 3940 373e 3462 2f3e 8ddb 133d 68d0 1a3e
00000020: 3a2e 1d3e 2a9d 0c3e a28c 0c3e 369d 463d
00000030: f122 583e e42d 6c3a fc17 03be 088a 823d
00000040: de10 8f3d a22e 123e a356 173d 421b 383e
00000050: ff50 2d3e 743c 273e d69f 9d3d 9746 403e
00000060: 3fcd 4f3d 3b51 3b3e 6188 2b3e cf9b 203e
00000070: 4413 79bd b4ac 393e 4895 0b3e 31e5 173e
00000080: a6cf 193e 2e15 2b3e 2671 1f3e 21cb 1c3e
00000090: 9512 2d3e b99d 253e b5df 1b3e e23a c4bd
000000a0: cc1b 1c3e b64f 193e 3aff 323e 47d3 753e
000000b0: 631b 353e e212 413e e6e3 c23d aaf6 b13d
000000c0: 9849 1a3e 0044 b5bd ca90 523e cc47 153e
000000d0: 1026 163e 32cf 223e b9b6 383e 6980 993d
000000e0: 1b88 233e 44f6 3e3e f9e9 3a3e 2d08 f63c
000000f0: 5d35 2f3e 7d2d 493e 9b5e 173e 558a 1a3d
00000100: 1894 b1bd 33bf 4a3d e5bf 74bd 999d 46bd
00000110: 0cd0 5cbd 8dae a7bd 79fd cbbd b6aa 133d
00000120: 24e3 813d 8481 a1bd dc6e a23d 97df e8bc
00000130: 83f7 2fbd 700f 153d 3fc3 febd c48d b3bd
00000140: 10ce 813d 96dc 163e b8cb 61bd dcac 84bd
00000150: f72e 47bd 5e72 3cbd 48d3 b6bb 8327 01bd
00000160: 7acb b1bd 20d2 69bd 5f1f 9bbd f514 63bd
00000170: 20e2 773d bad7 a73d 18ff b5bc a464 61bd
00000180: 86d4 06bd 9988 16bd c365 97bb 71f5 00bd
00000190: 9a4f a33d 470e 983c 779b a4bc b49b eebd
000001a0: 4315 0b3d 4f4b 15bd 003e a63c 069c e4bd
000001b0: 5b74 26bd c945 99bd 4f50 003e 4b37 67bd
000001c0: 76ff a53d 0ed9 d13d fce6 2bbd 440f 933e
000001d0: f571 803c 28fb ccbc a819 1fbd 5259 11bd
000001e0: f5e0 80bc b204 da3d 2a5b 323b 337f d5bc
000001f0: 90b4 013d 5472 123d a779 263d ae88 debc
00000200: 2eff 2dbd a92e d6bc 85b0 c1bc e5c9 43bc
00000210: 665e 733d 2008 863c ae30 c8bd ff9a 0cbd
00000220: b285 903c a4f8 81bc 9ce2 a43b b663 843d
00000230: 3ff9 d6bc 9d21 033d a8f9 21be 5cc7 023d
00000240: c22c f33d c05b 463d 2569 b5bd d99e 903c
00000250: 11ec ecbc 12c4 26bd 7e44 28bd ee6c 323b
00000260: cebb 523c 3342 afbc c311 00bd 4d46 dabc
00000270: ecb7 c13d 5135 c33b df61 b2bc edc4 af3e
00000280: 22fb f1ba 86be 6cbc 0dd8 5dbc 781a 18bd
00000290: 5f0a 30bd 55b0 8a3c 7eeb 85bc ed18 92bd
000002a0: d9b9 1e3d c278 e13b 12b9 acbc 85b7 a8bd
000002b0: 8dd3 f3bb 5ecc bdbd e7f2 53bd 30fd a0bb
000002c0: f25e e3bc dc10 9e3c 21e1 1abd e61e a3bc
000002d0: 03f9 cdb9 5200 aa3d a7d3 04bd 06da ab3c
000002e0: 60b7 3f3d d179 86bc a2dc 87bd e84e 09bd
000002f0: 2be2 6fbc 164d 86bc 644b 4d3b 84bb 1bbd
00000300: a3be 9c3d 562f 2dbd 01c4 45bd b204 2b3c
00000310: 3491 673d 6833 483d a813 a13d 9146 89bb
00000320: 01ac 023c 4990 60bd c898 17bd dfb4 62be
00000330: 477b 84bd 356d f53c afc4 90bd d64c b63d
00000340: e08f 68bd fa3d 203d 257c 9bbd 5653 0c3d
00000350: a463 3e3d 2662 08bd e445 10bd 2b16 8b3d
00000360: 02b3 263d 6fbb 193d 0717 853b 4636 643d
00000370: 362e 9ebd ef08 c7bc 7f1a e2bc 1df4 663d
00000380: 4be6 efbc 3407 8d3c 9b1f 4f3d dde9 a0bc
00000390: 6b03 4bbc ad5d a6bc 3246 0a3d 0cf6 383d
000003a0: dd7e 7f3c 729b 3d3d 2ba5 3d3d c6a7 0e3d
000003b0: 27a4 64ba f2f5 cfbc 3bc5 3ebd d3eb bd3c
000003c0: 25e0 f1bb 6b14 f4bd 87b8 70bd f943 563d
000003d0: 3e18 adbc 129c 973c 1d52 593c 77e8 c43c
000003e0: c044 883d b24c 153d ae82 eebc 8ffb 063d
000003f0: 2e17 d8bc dfdb ccbc f75b a13c 2563 f93b
0.22418857 0.1233384 0.17423794 0.16451049 0.17895593 0.17127305 0.03609805 0.15118563
0.15349665 0.13731828 0.13725522 0.04848977 0.21107079 0.0009009524 -0.12802118 0.063739836
0.06985639 0.14275602 0.036947858 0.17979148 0.16925429 0.16331655 0.07696502 0.18776928
0.050732847 0.18292706 0.16751243 0.15684436 -0.06080939 0.18132287 0.13631165 0.14833523
0.15020618 0.16707298 0.15570506 0.15311863 0.1690162 0.16173448 0.15222056 -0.095815435
0.15244979 0.14971814 0.17480174 0.24006377 0.17686228 0.1885486 0.095161244 0.086896256
0.15067136 -0.088508606 0.20563045 0.1457817 0.14662957 0.15899351 0.18038453 0.074951954
0.15969889 0.1864863 0.18253316 0.030033195 0.171102 0.19646259 0.14782183 0.03772958
-0.08670825 0.049498748 -0.059753317 -0.04849014 -0.053909346 -0.0818759 -0.099604554 0.036051475
0.06342152 -0.07886031 0.07931301 -0.028426928 -0.042960655 0.036391675 -0.12439584 -0.08767274
0.063381314 0.14732584 -0.055125922 -0.06478283 -0.048628774 -0.046007507 -0.005579386 -0.031531822
-0.08681388 -0.057085156 -0.07574343 -0.055439908 0.060518384 0.081954435 -0.022216365 -0.05502762
-0.032917522 -0.036751363 -0.0046202852 -0.03148407 0.07974167 0.018561495 -0.020093663 -0.11650792
0.033955824 -0.036448773 0.020293236 -0.111625716 -0.04063831 -0.074840136 0.12530635 -0.056449216
0.08105366 0.10246478 -0.04196833 0.28722584 0.015679339 -0.025022104 -0.038842827 -0.035485573
-0.015732268 0.10645427 0.0027214983 -0.02606163 0.03166634 0.035753563 0.04064336 -0.027164783
-0.042479686 -0.026145296 -0.023643741 -0.011949991 0.059416197 0.016361296 -0.0977491 -0.034327503
0.017641876 -0.015865631 0.0050318968 0.06464331 -0.026241897 0.032014478 -0.15817893 0.031928405
0.11873771 0.048427343 -0.08857945 0.01765387 -0.028921159 -0.04071433 -0.041080944 0.0027225572
0.012862159 -0.021393871 -0.03126694 -0.02664485 0.094589084 0.0059572835 -0.021775184 0.3432993
-0.0018461684 -0.014449721 -0.01354028 -0.037134618 -0.04297864 0.016929785 -0.016347643 -0.071336605
0.038751457 0.0068808505 -0.021084342 -0.082381286 -0.0074409903 -0.092674956 -0.05174532 -0.004912995
-0.027755234 0.019295149 -0.037812356 -0.019912194 -0.00039286175 0.08300842 -0.03242841 0.020977985
0.04680574 -0.016415508 -0.06633879 -0.033522516 -0.014641325 -0.01639418 0.0031325454 -0.038020626
0.076535486 -0.04228147 -0.048282627 0.010438131 0.05653496 0.04887715 0.07865077 -0.0041893204
0.007975579 -0.0548251 -0.037010938 -0.2213931 -0.06468826 0.0299593 -0.070687644 0.08901374
-0.056777835 0.039121605 -0.07592038 0.034259163 0.046481743 -0.033296727 -0.035222903 0.067913376
0.04069806 0.037532266 0.004061583 0.05571582 -0.07723658 -0.024296252 -0.027600525 0.05638515
-0.029284617 0.017215349 0.05056725 -0.019642765 -0.012390952 -0.02030834 0.03375835 0.045156524
0.015594211 0.046290822 0.046300095 0.03482797 -0.00087219704 -0.02538583 -0.046574812 0.023183739
-0.0073814564 -0.11917957 -0.05876973 0.052310918 -0.021129724 0.018507037 0.013264206 0.02403663
0.06653738 0.036450095 -0.029115047 0.03295475 -0.02637824 -0.025007186 0.019697173 0.007610696

fc2.bias f4 [32]
00000000: 1e5c a83f 5054 373f 7508 483f de1f 483f
00000010: aa73 803e 13aa 743e 72c1 0d3f c99d 933f
00000020: 3986 623f ac52 aebd 8479 d63e 04a9 9e3f
00000030: 3584 153f 3302 e2bd 7aba 493f 783f 803f
00000040: a353 2e3f 0d1e 343c 24dd 9d3f 5fc7 073f
00000050: beb0 ea3e d430 32bc 45d0 723e 16dd 493f
00000060: 0163 02be d66b b43e da0d 293f 503a 2c3f
00000070: e02c 5b3f 5010 053f faf9 ec3e 4f63 853f
1.3153112 0.71613026 0.78137904 0.78173625 0.25088245 0.23893003 0.553733 1.1532527
0.8848606 -0.08511862 0.41889584 1.239533 0.58404857 -0.11035576 0.78800166 1.0019369
0.6809637 0.010993493 1.2333112 0.5303859 0.4583797 -0.010875899 0.23712261 0.78852975
-0.1273308 0.35238522 0.6603676 0.6727648 0.8561535 0.51978016 0.46284467 1.0420932

fc3.weight f4 [16, 32]
00000000: 5d21 b73d 57f9 113d 436b 73bd 60f4 54bd
00000010: 69c9 ba3c a5a1 72bd db91 88bd 0b24 aa3d
00000020: 7fdf 1e3e 1aa4 b2bc c985 253e 738a 5abe
00000030: 001f 68bd 8ace 2fbd 196d e83d 19e7 3f3e
00000040: 0a9c b73c 6dbf 98bd fce2 6cbc d18a 683d
00000050: fa51 00bd 3dc3 b43d 0cfd acbd 5ed8 583e
00000060: 2dd4 9c3d 4aa0 d2bd 7a07 cf3c af1d ed39
00000070: de0b d33d 6922 40be 0355 d6bb 2feb 1c3e
00000080: 0534 fc3d 53a9 dcbd 6996 013e 3e4e 30bd
00000090: 208e 393e a6ee 8ebe 9178 4a3e b84a 973e
000000a0: f55a df3e c7cd 87be c1d6 873d e538 3e3d
000000b0: a885 6fbd 670d f6bd 95f3 203e d350 133e
000000c0: ff74 173e 9b5b fcbd c9a9 8a3e 25c0 e03b
000000d0: 80cc 6a3e f1a5 fd3c cbc8 343e b78c 9b3e
000000e0: 7082 e5bd 5df4 233e 6e10 1ebd bbcf 403e
000000f0: ae3f 2c3e 2da9 803d 25c9 813e 70d5 e73e
00000100: 655b 1f3e 041a ab3c 11d4 0e3e 6d8a fe3c
00000110: df0f e43d f3cb 693d 4902 773c 305e 0b3d
00000120: ffc7 5f3e 4315 313d e1c8 f3bc 167e f0bd
00000130: 6e17 f83d a7e6 cfbd 0280 fc3c f2d9 a53d
00000140: e543 5b3d b13b aa3c 588a e63c c057 82bd
00000150: baf1 933d 220c 1dbe 79ee e03c 3465 cb3e
00000160: abc2 e5bd b3b3 a43d 60f8 ba3d c1cf 943c
00000170: 2e12 1ebe 23ab 32bd a606 53bd 1d4d 003e
00000180: 7d4b 5e3e 6463 323e 4e16 bb3d 1f87 6d3d
00000190: 34dd 183e 1f15 8c3d 7ee3 983d 9204 4e3e
000001a0: 738e 463e 70bd de3d 0495 913d 0fbd 2e3c
000001b0: baf9 2c3e 7bea 0cbe e5ac 4cbe 4430 163e
000001c0: ade3 043d 2bef d7bd 24bc 943e 1982 2b3d
000001d0: dc0a 433d 4c53 bbbc 4d97 4b3d 0550 543e
000001e0: 759a ebbd 95d8 a73d 88f1 233e dac7 dd39
000001f0: de11 39be 0414 143e 8c04 5b3c 073f 513e
00000200: 526b 0abe 518f c1bc 7361 1ebe ebfe 8b3b
00000210: e5b9 1abe 3340 abbd 6203 623d 1faf 06bd
00000220: f2e0 7b3c 252c f8bd 45a7 39be 502b 78bd
00000230: 1a65 20be 12fb b53d e1c5 1dbd 3a23 44bc
00000240: abc7 80be fabe 033e 13ca e63c 9d69 1dbe
00000250: 9c7a e7bc 5bf3 c5bd 8aab 65bd 2b70 a8bd
00000260: af0f ffbc b0dc 023e 4af4 023e 570f 0fbd
00000270: 42e3 0cbe 6615 383d 960f b0be 910a 6bbd
00000280: 032d 15be c50c 8ebe 1bde 493c 5ad3 9bbd
00000290: 3f05 9d3d 8a87 52be fd03 d43c 9e87 45bd
000002a0: f38f 8bbe ee4a 02be d9ea 0bbf 9cc1 a6bd
000002b0: 304a 37be ee81 963d d096 55bd d8cc 45be
000002c0: ef0d 81be 6107 d6bc 71ab c93d 275b bb3d
000002d0: 29b8 5c3d 8938 ccbc 26c8 a53d c5fe 96bd
000002e0: 606d 15be 6e23 d43d 1b03 53bd c923 2fbe
000002f0: b730 10be 9128 983d d69c 48be 2793 2b3d
00000300: 0ae4 1ebd 99f3 20bd f320 79bd ad62 8dbc
00000310: 0a7f e03d fa9d 94bd 6bf9 fdbd cc7c 683c
00000320: 040f 27be 1266 41be 0624 8bbe bca5 19be
00000330: c80f c2bb 8025 7f3c 90e0 b7bc de80 30be
00000340: cf65 48bd 5bd0 d2bd ef48 033c ed41 3ebd
00000350: 972c 853c 0e96 f1bd 23a5 ecbc d84e 023e
00000360: 530e 183c 8f12 d83d d91a e6bd 0092 e4bd
00000370: 8c72 eabd 3e47 0d3e d461 973d 2ccd a1bd
00000380: 7912 5abe 765a 213d 9d0f 703c 6411 6e3c
00000390: e955 8a3d abbc 773c 5f68 3f3b 28d4 a03c
000003a0: 8305 003d 2495 ec3c 1934 d5ba 7cb2 d93d
000003b0: 00fb f93c 44de 423e 8b1f 5e3e 4d3d af3c
000003c0: ca17 1bbb 8ef1 d4bd 17f5 8f3d ff27 1fbb
000003d0: b1be 10bb d999 8abb 84b0 b13b 8f97 963d
000003e0: 748e 083e 95ab 99bb 1292 263d c000 68be
000003f0: b3d3 ebbd 560f 703c b902 75bc 585b 0c3d
0.089419104 0.03563818 -0.059428465 -0.051990867 0.022801118 -0.059236187 -0.06668445 0.08307656
0.15514944 -0.021806765 0.16164316 -0.21341877 -0.05667019 -0.04292158 0.11348934 0.187405
0.022413272 -0.074583866 -0.014458414 0.05677301 -0.03132818 0.08826301 -0.08446702 0.21176288
0.07657657 -0.10284479 0.02527212 0.0004522628 0.10304998 -0.18763126 -0.006540896 0.1532409
0.123146094 -0.107744835 0.12655033 -0.043043368 0.18120623 -0.2791645 0.19772555 0.29549193
0.43624082 -0.26524183 0.06632758 0.046440978 -0.058477074 -0.12014275 0.15717919 0.143863
0.14790724 -0.1232216 0.2708266 0.006858843 0.22929573 0.030962916 0.17654721 0.30380794
-0.112065196 0.16011186 -0.038589887 0.18829243 0.16821167 0.06282268 0.25348774 0.45280027
0.15562208 0.020886429 0.13948084 0.031071866 0.1113584 0.057079267 0.015076228 0.03402537
0.21853636 0.043233167 -0.029758872 -0.11742799 0.12113844 -0.10151415 0.030822758 0.080982104
0.053531546 0.020780416 0.02814214 -0.06364393 0.0722384 -0.1533666 0.027457463 0.3972565
-0.112187706 0.080420874 0.09129405 0.018165471 -0.15436623 -0.04362024 -0.051520012 0.12529416
0.21708484 0.17420727 0.09135114 0.05799019 0.14928132 0.06839966 0.07465266 0.20118931
0.19390278 0.10875976 0.071085006 0.010665192 0.16892138 -0.13761322 -0.19987829 0.1466685
0.03244369 -0.105436645 0.2904979 0.041872118 0.04761778 -0.022866867 0.04970484 0.2073365
-0.1150407 0.081956066 0.16010106 0.00042301306 -0.18073222 0.1446076 0.013367783 0.204342
-0.13517502 -0.023627909 -0.15466861 0.004272332 -0.15109976 -0.083618544 0.055179007 -0.032881852
0.015373455 -0.12117795 -0.18130215 -0.06058818 -0.15663567 0.088857785 -0.03851879 -0.011971289
-0.25152335 0.1286582 0.028172528 -0.1537232 -0.028256707 -0.09665557 -0.056071796 -0.08224519
-0.031135408 0.12779498 0.12788501 -0.03492674 -0.13758567 0.044942282 -0.3438689 -0.057383124
-0.14567952 -0.27744117 0.0123210205 -0.076086715 0.07667016 -0.20559517 0.025880808 -0.048225038
-0.27258262 -0.12723896 -0.54655224 -0.08142397 -0.17899394 0.07349001 -0.05214578 -0.19316423
-0.25205943 -0.026126565 0.09847153 0.09148245 0.053886566 -0.024929302 0.08094816 -0.07372812
-0.14592505 0.1035832 -0.051516633 -0.17103495 -0.14081083 0.074296124 -0.19591078 0.041888382
-0.038791694 -0.039294813 -0.06082244 -0.017258966 0.10961731 -0.07256694 -0.12401088 0.01418991
-0.16314322 -0.18886593 -0.2717592 -0.15004629 -0.0059222914 0.015572906 -0.022445947 -0.17236659
-0.048925217 -0.10293647 0.008012994 -0.04644959 0.016256614 -0.11796199 -0.028887337 0.12725389
0.009280759 0.10550415 -0.112355895 -0.1116066 -0.11447629 0.13796708 0.07391706 -0.079004616
-0.2129611 0.03939291 0.01465216 0.014530513 0.06754667 0.015120666 0.0029206497 0.019632414
0.031255256 0.02887971 -0.0016266137 0.10629746 0.030515194 0.190301 0.2169172 0.021391535
-0.0023665302 -0.103976354 0.07029169 -0.0024285314 -0.0022086317 -0.004229766 0.0054226536 0.07353126
0.13335592 -0.0046896436 0.040666647 -0.22656536 -0.11514988 0.014652094 -0.014954262 0.0342668

fc3.bias f4 [16]
00000000: bb3f b43f 2430 a23f 062c c83f 6f34 d43f
00000010: de06 14be 03f5 ce3c 3101 24be c5cf fe3f
00000020: 8345 ce3f aeba 0d40 eb7a 9e3d 566d ae3f
00000030: da38 8140 05ea 0f40 f33d d53f 2f9b c1ba
1.4081949 1.2670941 1.5638435 1.6578501 -0.14455745 0.025263315 -0.1601608 1.9907156
1.6114963 2.214519 0.077382885 1.3627117 4.03819 2.2486584 1.665953 -0.001477098

fc4.weight f4 [1, 16]
00000000: dd00 993e 2d0d aa3e 2edb fa3e a408 1b3f
00000010: 3c5d 37be 5ab3 09be 063d 1b3b 1bc3 1d3f
00000020: 28db 8a3e feaa 543f 17a6 11bd ad72 3b3e
00000030: 3943 0540 a7fc 183f e1cc af3e b43d cbbd
0.2988347 0.33213177 0.48995346 0.6056006 -0.1790666 -0.13447323 0.0023687496 0.6162583
0.27120328 0.83073413 -0.035558786 0.18305464 2.082228 0.59760517 0.34335998 -0.09923878
