bootstrapping_heuristic.pth (torch, 17024 bytes, 7 tensors)

fc1.weight f4 [64, 11]
000000 72 63 dc bd 38 6b d1 bd d8 9c ef bd d6 ca da bd
       -0.10761155 -0.102255285 -0.116998374 -0.10683219
000010 cf 52 01 be 40 6d fc bd 22 e7 ec be 17 c5 c8 3e
       -0.12629245 -0.12325525 -0.4627009 0.39212868
000020 65 ed b2 3e b3 bd 1c bd 2f 34 fb bd d4 25 ad bd
       0.34946743 -0.03826685 -0.122658126 -0.08454481
000030 c2 c7 2e be 8f aa ee bb d9 31 d1 bd b0 a6 ca bd
       -0.17068389 -0.0072835158 -0.10214586 -0.09895074
000040 07 a1 56 3c 06 10 fa bd fa 16 53 be 2d a8 7e be
       0.013099915 -0.122100875 -0.20614234 -0.24868841
000050 e3 1e fb 3c 39 fd 48 3e f9 0b b0 3c d9 08 61 3c
       0.030654376 0.19627847 0.021490084 0.01373502
000060 fc b0 17 3c 80 c7 11 3d 96 50 a7 3c 12 b4 2b bf
       0.009258505 0.03559065 0.020424169 -0.6707164
000070 83 bd 2c 3f cb 3e d3 3c aa 41 6a 3c f7 97 0c 3d
       0.6747667 0.025786778 0.014297882 0.034324612
000080 69 5b 8e bc a8 9b 66 bd ce 9f f0 bd 1f b9 d5 bd
       -0.017377572 -0.05630079 -0.1174923 -0.104357
000090 11 22 1d bc dd 43 ac bd 6c 45 47 3e 02 d5 14 bf
       -0.009590642 -0.084113814 0.19460076 -0.58137524
0000a0 85 73 71 3e bf 62 97 3e ae 3a de bc 7f 17 12 be
       0.23579223 0.29567525 -0.02712759 -0.14266776
0000b0 e6 c0 86 be ec e3 77 bd 00 b2 8d 3d 88 e3 91 3d
       -0.26319045 -0.060520098 0.069187164 0.07123476
0000c0 01 29 8b be 0c a7 97 3d 85 b8 94 be 54 90 09 3e
       -0.2717972 0.074049085 -0.29047027 0.13433963
0000d0 70 c5 2e be 8e 24 54 be 08 ac 7d be 0c 03 13 bc
       -0.17067504 -0.2071707 -0.24772656 -0.008972894
0000e0 d9 87 e8 3e d7 dc ec be aa 14 eb 3b 3b f1 99 bc
       0.45416144 -0.46262237 0.007174094 -0.018791785
0000f0 b1 a3 96 bc 1b b0 14 3b bb 07 b9 bc fd b7 e9 3a
       -0.018388601 0.0022687975 -0.022586694 0.0017831322
000100 7d fa 53 bc a6 2d 2c bc f5 7e 0c bb 4d 78 87 bc
       -0.012938139 -0.01050893 -0.0021437977 -0.016536856
000110 73 ec 69 bb 69 fa 3a bc f5 58 38 bc be 2f 38 ba
       -0.0035693913 -0.0114122415 -0.011251678 -0.0007026157
000120 21 c7 df bb d3 60 14 3f 47 d7 f4 be c6 1f 35 3c
       -0.006829158 0.5796024 -0.47820494 0.011054939
000130 92 5e ee 3b 17 97 6f be ca 7e 6e be 6b 20 b8 bd
       0.0072744573 -0.2339748 -0.23290554 -0.08990558
000140 7a 26 32 3f 0f 9b 48 bd 61 f4 a2 bd f9 1b e0 bc
       0.6958996 -0.048976 -0.07956768 -0.027357088
000150 10 00 b7 bd 92 65 b0 bd 32 7b 35 be 76 87 2f be
       -0.08935559 -0.08613123 -0.17722777 -0.17141518
000160 58 3b 48 bc cc 64 3a bc 1d 37 44 bc 1a 99 4a bc
       -0.01222118 -0.011376571 -0.011976031 -0.012365604
000170 52 14 3f bc e9 88 51 bc 62 1f 32 bc c4 a0 43 bc
       -0.01166256 -0.01278899 -0.01087174 -0.011940185
000180 8f 62 29 bc 97 54 10 bf 3f 2c 09 3f 79 20 b1 3a
       -0.01033844 -0.56379074 0.5358314 0.0013513706
000190 16 6d bc 3a 9f 59 18 3b 11 90 9f 3a 10 09 28 3e
       0.0014375772 0.0023246778 0.0012173672 0.16409707
0001a0 af cb 03 bf b0 b5 b3 3e 5b fa 8a ba 0f 77 97 39
       -0.5148267 0.35099554 -0.0010603176 0.0002888967
0001b0 08 b2 1f ba c4 16 07 3a dc 30 f7 bb 03 85 08 bb
       -0.00060918974 0.00051532337 -0.0075436663 -0.0020831234
0001c0 2b 07 1c 3b 90 3e 6c bb 33 a0 af 3b 1a 7b 15 3f
       0.0023807983 -0.0036048032 0.0053596734 0.58390963
0001d0 8b 6d 04 bf 97 c4 a8 bc 80 eb c6 ba 05 2f f6 bc
       -0.5172965 -0.020601554 -0.0015176386 -0.030051718
0001e0 d3 09 1e bb 49 8c 3d be f5 cd 44 be db 9d 53 be
       -0.0024114742 -0.18510546 -0.19219191 -0.20665686
0001f0 7d a2 3b be 3a 7e 4a 3f 9d 2c 4a bd 58 ea 01 bd
       -0.18323703 0.79098856 -0.049358953 -0.03171763
000200 bf 8f 98 bd cc fe e7 bd a5 9a 10 be 5e 94 50 be
       -0.074492924 -0.113278955 -0.14121492 -0.20369098
000210 42 7c 4f be b6 4a f2 bd 80 61 3c 3b a0 5f 35 be
       -0.20262244 -0.11830656 0.0028744638 -0.1771226
000220 b0 e3 dd 3d 45 85 27 be ea 06 00 be b0 04 4f bd
       0.108344436 -0.16359432 -0.12502638 -0.05054158
000230 6c 5e 4b 3e 8c df 33 be da e0 3f be b9 73 93 bc
       0.19860238 -0.17565745 -0.18738118 -0.017999517
000240 f9 59 4c be f5 f9 1d 3f 6e ad 8e be 42 45 27 3c
       -0.19956197 0.6170953 -0.2786669 0.010209383
000250 5c 76 78 bd 2b 6c 8a bc 26 5f 96 bc 76 3e 8f ba
       -0.06065975 -0.016897282 -0.018355917 -0.0010928649
000260 e1 e0 e8 bd f8 fb 06 be 96 b6 50 bc 92 0f 52 bc
       -0.11371017 -0.13182056 -0.012738844 -0.012821095
000270 4f 9c 58 bc 0c 00 5d bc 51 73 5c bc de ec 2d bc
       -0.013220861 -0.013488781 -0.013455228 -0.010615556
000280 44 48 4d bc f1 d3 4e bc d9 11 1a bf d7 53 14 3f
       -0.0125294365 -0.012623773 -0.60183483 0.5794043
000290 b5 82 57 bc 81 cc 08 bf 46 06 0a 3f db cb 0c bd
       -0.013153722 -0.5343705 0.5391582 -0.0343741
0002a0 5f bd 38 3c f6 1b c2 3c f4 18 17 bd cd 44 ee 3c
       0.011275618 0.023694973 -0.03688903 0.029085541
0002b0 50 07 ea bc 34 00 95 3d 7f 9b ff bc fc 20 2b bd
       -0.02856794 0.07275429 -0.031202076 -0.041779503
0002c0 97 9d 22 3d 88 21 db bd 08 88 07 3f ed ba 24 bf
       0.03970107 -0.10699755 0.5294194 -0.64347726
0002d0 f2 60 12 3e df 48 9a bd 56 9f c5 3d b2 53 ff bc
       0.14294794 -0.0753343 0.096495315 -0.031167839
0002e0 e3 b4 d3 3c 19 f4 f0 3c 53 d5 7c bd 36 7f 15 bd
       0.02584309 0.02941327 -0.06172688 -0.03649827
0002f0 60 d8 6f bd 45 ce 5e bd 82 45 9a bc 46 13 c3 bc
       -0.05855596 -0.054395933 -0.018831972 -0.023812901
000300 50 f0 62 bd 83 06 71 be 3a 15 1a bf 0c d3 c7 3e
       -0.05540496 -0.2353764 -0.6018864 0.39028203
000310 7f 16 da 3e 6a 70 a1 bd 3a a3 86 3c 68 cc be 3b
       0.42595288 -0.078827694 0.016435254 0.005822707
000320 84 16 de 3a 4d 03 b7 3c 53 0e 8c 3e 37 71 a5 be
       0.0016943966 0.022340441 0.2735468 -0.3231294
000330 cb 9a 5c 3c a0 82 0e bd 54 6a fe ba ed a8 53 ba
       0.01346464 -0.034792542 -0.001941035 -0.0008074183
000340 49 6c 1e 3d 39 31 df bb 97 1b 06 bf d5 10 04 3f
       0.038677488 -0.0068112877 -0.5238585 0.51588184
000350 35 70 9d bc 38 cd 90 3b 7e 95 4d bc 6c 5a 2f bb
       -0.019218544 0.004418995 -0.012547849 -0.0026756776
000360 6d a5 b3 bb d1 24 c6 3b 8a eb 0d ba f5 34 d6 bc
       -0.005482367 0.0060468693 -0.0005413821 -0.026148299
000370 86 1f 9d bc 60 3c 1b 3b 38 c5 13 bc 99 e1 7e bc
       -0.01918007 0.002368711 -0.009019189 -0.015556716
000380 94 a3 ff 3e 32 b5 d9 be e8 47 07 3d 32 32 29 bb
       0.49929488 -0.42521054 0.03302756 -0.0025817272
000390 70 06 82 bd 35 c8 af bc 3c fb e8 3b 63 8c 45 bd
       -0.06348884 -0.02145777 0.0071100276 -0.048229586
0003a0 9c 2d 89 bd b1 dc 94 bd e2 06 50 bd ff ef e3 bc
       -0.066981524 -0.07268656 -0.050787814 -0.0278244
0003b0 cf c5 00 bd 59 c9 1a be f0 01 21 bf 39 0a ec 3e
       -0.031438645 -0.1511587 -0.6289358 0.4610155
0003c0 0c f2 84 3d e4 af 6a 3e 8c d8 77 bc 6a 9b 51 bc
       0.06491479 0.2291866 -0.015127312 -0.012793401
0003d0 69 85 45 bc 36 7d 45 bc 5e 18 58 bc 9b 05 35 bf
       -0.012055733 -0.012053778 -0.013189403 -0.7071168
0003e0 9f 0d 31 3f 12 c5 68 bc 8e f1 47 bc 05 b7 60 bc
       0.6916141 -0.0142071415 -0.012203587 -0.01371551
0003f0 52 92 97 bc f1 95 26 3c ea 1d b1 bc f9 3a 87 bc
       -0.018502388 0.010167585 -0.02162071 -0.016507613

fc1.bias f4 [64]
000000 4d ad 51 3e 02 4b 00 be 00 ed 69 3d b6 7a 59 3c
       0.20476265 -0.12528613 0.057110786 0.0132738855
000010 9c f0 12 3e 74 63 18 3e 97 e6 94 be c6 c0 8c be
       0.14349598 0.14881688 -0.29082176 -0.27490824
000020 2a f3 81 3e 45 61 6d be 3a 83 88 3e 5d 41 13 be
       0.25380832 -0.23181637 0.26662618 -0.14380403
000030 dc 8f 85 bd f8 bc bc 3d fb e4 67 3e 76 0f cd bd
       -0.065215796 0.092157304 0.22645943 -0.100127146
000040 b1 3b 8b bc 3c 8c 11 be cf 4a 71 3d 92 41 e7 bc
       -0.016996237 -0.14213651 0.058909234 -0.028229509
000050 58 1d 24 be 04 1e 98 be 9d 69 cb 3d 9c 3d f2 3d
       -0.16026819 -0.297104 0.099322535 0.11828157
000060 58 04 5b be 35 d5 8e 3e 96 12 b9 bc 6a be 9d be
       -0.21388376 0.2789704 -0.02259187 -0.30809337
000070 bd 98 71 bd 0c 12 2f 3e 68 71 54 bd f9 3d 5b bd
       -0.058983553 0.17096728 -0.051865965 -0.0535259
000080 86 e4 61 be 9e c6 90 3e 0e c6 56 3e d2 37 1b be
       -0.22059831 0.28276533 0.2097399 -0.15158013
000090 f5 6f ec 3d 7e f5 6a 3e 40 36 98 3a 86 39 55 3d
       0.115447916 0.2294521 0.0011612847 0.05205681
0000a0 16 93 1a be 1c d5 69 be 8d 9c c1 3d 09 91 a4 be
       -0.15095171 -0.22835201 0.09453688 -0.32141903
0000b0 99 df ad bb 98 d9 8d 3e 77 22 d2 bc fb c2 b4 bd
       -0.005306196 0.27705073 -0.0256512 -0.08826252
0000c0 40 83 5a 3e 8e 64 25 bc f7 7d f2 3d 86 a5 9e be
       0.2133913 -0.010094775 0.11840432 -0.3098566
0000d0 7f f6 9d b9 37 b8 5e 3e 26 32 c6 bd 5d 74 0a 3e
       -0.00030129027 0.2174996 -0.09677534 0.13520952
0000e0 8a a9 75 be 47 8f 2c be e4 16 53 be a7 87 1e 3d
       -0.23990455 -0.16851531 -0.20614201 0.038703587
0000f0 48 31 13 3e 77 71 31 3e 9e ff 43 3e f4 20 0c 3e
       0.14374268 0.1732844 0.19140479 0.13684446

fc2.weight f4 [32, 64]
000000 68 e6 0f be ec 54 4b bd db 1f bb 3d f1 c3 b8 bc
       -0.14052737 -0.049641535 0.09136935 -0.02255437
000010 56 0c b2 bd 58 49 41 3e 46 98 82 3d ea 5b e4 3e
       -0.08693759 0.18875635 0.063767 0.44601375
000020 0e 4e 9d 3e 71 16 ed 3d 26 8f 7b 3e b9 80 22 3f
       0.30723614 0.11576546 0.24566326 0.63477665
000030 80 09 62 3c 44 3f 65 3e f1 3d ab 3e 63 f2 28 3e
       0.01379621 0.22387415 0.33445695 0.16498713
000040 4c f4 02 3e a2 d2 6a 3e 0d 52 74 3d 22 42 50 3e
       0.12788504 0.22931913 0.059648562 0.20337728
000050 5c 0d 05 3e ed 1d 0a 3e 18 67 65 3d 29 85 d5 3d
       0.12993377 0.13487978 0.05600652 0.10425789
000060 48 22 4c be ac e1 fa 3d ea 39 a0 3d 46 0e ab 3e
       -0.19934952 0.12250075 0.07823546 0.33409327
000070 ee 31 e4 3d 8c e3 5a 3e 9a 67 73 3e aa 4f 5b 3e
       0.11142336 0.21375865 0.2376999 0.21417108
000080 2a 85 ce 3d 0a 31 a7 bb f2 41 83 3e 5a 93 35 3e
       0.10083993 -0.0051022815 0.2563625 0.17731991
000090 f6 a2 17 be 7f 19 03 3e fb e2 b6 3d 9d 06 ea 3d
       -0.14808258 0.12802695 0.08930012 0.11427043
0000a0 03 c1 74 3e af 84 0c 3d fb bd 38 bc fd 97 06 3e
       0.23901753 0.034306224 -0.011275764 0.13143916
0000b0 dc 61 29 3d 3a 6c 25 3e fd 05 ed 3d 39 93 a1 3d
       0.04135309 0.16154566 0.11573408 0.078894086
0000c0 50 8d 81 3c 07 5b 95 3d 24 99 04 bf 6c f9 25 3b
       0.015814453 0.07292753 -0.51796174 0.002532567
0000d0 26 ed d3 3e dc 72 97 3d 77 ce 99 3e df 0a 50 3e
       0.41391867 0.073949546 0.30040333 0.20316647
0000e0 76 91 b3 bd a6 65 35 3e cb 15 20 3e 87 01 d1 3e
       -0.08767979 0.17714557 0.15633313 0.40821478
0000f0 72 a9 df 3d d3 ba c1 3c fd 96 41 be 80 57 f4 3d
       0.10920991 0.023648655 -0.18905254 0.11930752
000100 53 dd df 3e 00 c3 b7 3d 8f 57 10 3e e6 1c 94 3e
       0.43723544 0.0897274 0.14095901 0.28928298
000110 40 5f 16 3c b9 63 b7 3e 04 6a 99 3d 59 fe 48 3f
       0.009177983 0.3581827 0.07490924 0.78513104
000120 6e 98 fc 3e bf 09 47 3e 92 7d c3 3e 56 26 92 3f
       0.49335045 0.19437312 0.3818174 1.1417949
000130 e2 db a8 3d e0 78 c1 3e 16 f1 09 3f 76 0b 8e 3e
       0.08245064 0.37787533 0.5388349 0.2774312
000140 ae ac 78 3e ec dc 1d 3f c9 7d a8 3d 01 97 b7 3e
       0.24284622 0.61665225 0.082271166 0.35857394
000150 5a a9 3a 3e e1 3e a4 3e e7 1b 75 3e bd 72 02 3e
       0.18228665 0.32079223 0.23936425 0.12739082
000160 71 5b 34 3d e2 c9 0b 3f 19 73 2e 3e b3 bf 05 3f
       0.044032518 0.54604924 0.17036094 0.52245635
000170 65 24 9d 3e 27 ee f3 3e b0 c7 e4 3e c7 8d 0a 3f
       0.3069183 0.47642633 0.446836 0.54122585
000180 fb a1 f0 3d 8a 7d 05 bd 68 df cb 3e a9 f7 93 3e
       0.11749645 -0.032590427 0.39818883 0.28899887
000190 13 8f 03 3e f5 6a 9b 3e b3 6f f6 3d ce 4d 56 3e
       0.12847547 0.3035504 0.12033024 0.20928118
0001a0 4d 5a 9c 3e cc 3b 13 3d 08 5b a8 bd d2 71 0b 3f
       0.30537644 0.0359457 -0.08220488 0.5447055
0001b0 69 57 c3 3d 4d f0 91 3e 0c e8 90 3e de c6 10 3e
       0.095381565 0.28503647 0.28302038 0.14138362
0001c0 00 d7 75 3d a8 27 10 3e aa f5 29 bf 00 89 cf 3c
       0.060019493 0.14077628 -0.6639048 0.025333881
0001d0 0d 5c 02 3f 03 24 60 3d 85 e5 07 3e 58 1e 99 3e
       0.5092171 0.054721843 0.13271149 0.29905963
0001e0 48 74 0f bd 33 a7 90 3e c9 97 bd 3e 4e 9e 4d 3f
       -0.035023004 0.28252563 0.37029865 0.8031968
0001f0 7f 03 2c 3f 59 be 15 3d 73 39 87 be 8f 4f 44 3e
       0.67192835 0.036558483 -0.26411018 0.19170974
000200 bf 70 1e c0 61 e7 e9 3a de ad ae 3c f7 e8 de bf
       -2.4756315 0.0017845446 0.02132314 -1.7414845
000210 a0 80 af bb c9 aa 40 3c 9b ee 6e bf 03 db 95 3d
       -0.0053559095 0.011759468 -0.93332833 0.07317164
000220 5b df e7 3c c2 fc 92 3c d7 86 54 bf 85 b2 e0 3d
       0.028304746 0.01794279 -0.8301825 0.1097155
000230 9a 8e d7 3d 19 83 8f 3c 41 9e 6a 3d 3d f0 31 3d
       0.10525246 0.017518567 0.05727983 0.043442
000240 e3 7c fa 3c b0 f6 26 bf 7d 14 7e bc ac 97 aa 3c
       0.030577129 -0.65220165 -0.0155078145 0.020824276
000250 ee ea c6 3c 79 b8 21 c0 01 a3 b0 3c 14 d6 7e bf
       0.024281945 -2.5268843 0.021562101 -0.9954541
000260 81 e5 d5 ba 80 a2 ef be d1 ed 40 3c e7 b7 0e 3d
       -0.0016319008 -0.46803665 0.01177545 0.03484335
000270 c7 98 6d 3a fd 59 29 3d 81 84 34 3d 2b 10 da 3c
       0.0009063598 0.041345585 0.044071678 0.026619038
000280 84 7e e5 3a a8 79 cb bf 8c 1e 3b 3d 0f 0d 38 3d
       0.0017509018 -1.5896502 0.04568343 0.04493433
000290 82 1c b2 bf 99 2e be 3c 20 ae 56 3c 21 02 7f 3c
       -1.391495 0.023215579 0.013103038 0.015564472
0002a0 fc b7 0d 3d 2a ff 66 bf d6 33 b2 bf 7a 49 40 be
       0.03459929 -0.902331 -1.3922069 -0.18778029
0002b0 45 51 a8 3c 5b 3c ab 3c d1 23 fb 3c f1 6f ab 3c
       0.020546565 0.020902803 0.030656727 0.020927401
0002c0 ac 21 14 bd df b7 b3 3d 13 72 08 3d 63 df 92 bd
       -0.036164925 0.08775305 0.033311915 -0.07171514
0002d0 50 d7 c3 bf da 11 9d 3d 58 60 06 c0 72 af 34 3d
       -1.5300083 0.076694205 -2.0996304 0.04411263
0002e0 f8 bd e2 3d 03 e1 4e 3d b6 f1 16 3d b7 4c c8 bf
       0.1107139 0.050507557 0.036851607 -1.5648412
0002f0 15 95 03 be dd db 46 3c 4e dc 69 be 32 42 e7 3c
       -0.12849839 0.01213738 -0.22837946 0.028229807
000300 3c 0e 0f be dc f4 49 bd f4 d5 00 bf d0 b8 17 3e
       -0.13970274 -0.04930578 -0.50326467 0.14816594
000310 ce 40 b2 bd 28 d2 f4 bb 95 32 5d 3d 52 7a 87 3d
       -0.08703767 -0.0074713416 0.054003317 0.066151276
000320 8e 2c 97 3c e3 61 37 be 14 5a af bd 11 c0 5b bd
       0.018453863 -0.17908435 -0.08562103 -0.053649966
000330 10 83 87 bd 48 5d 2d 3b b0 7f 49 3c ba 77 84 3c
       -0.06616795 0.0026453305 0.0122985095 0.016170371
000340 15 6d 4e 3b b9 ac b9 bc 9c cc 9c bd e3 1f 9d bb
       0.0031498123 -0.022665368 -0.07656214 -0.004795061
000350 23 f3 2c bd 5b 76 16 bd c0 38 91 be f3 b2 2a 3d
       -0.04222406 -0.036733966 -0.2836361 0.041674566
000360 73 e9 ec bc 14 eb 47 3d ba 8f 0f bd 99 9a 69 bd
       -0.028919911 0.048808172 -0.035049178 -0.0570322
000370 93 bc 02 3d 84 34 36 3b 73 ee ad bc 7c 86 17 3c
       0.03191812 0.0027802298 -0.021231866 0.009248372
000380 81 32 94 3c ed 63 df bc bb ad 7b bd 25 8d 2a 3d
       0.018090488 -0.027269328 -0.06144498 0.041638512
000390 ca 86 ae 3d 0b 16 9e bc a4 c9 e4 bc 12 17 82 bd
       0.08521803 -0.01929762 -0.027928181 -0.063520566
0003a0 13 3b e9 bb e2 21 44 3a 49 16 36 be ee d5 d1 3c
       -0.007117638 0.00074818556 -0.17781939 0.025614705
0003b0 93 73 07 bf ed 09 a4 bb de 0c 34 3b e5 83 1b bf
       -0.5291073 -0.005006066 0.002747349 -0.6074813
0003c0 06 be ac bd f5 31 1a bd f9 0c 70 bd f8 af b6 bc
       -0.084346816 -0.0376453 -0.05860612 -0.022300705
0003d0 95 3b 78 bd d8 89 fe bd 24 6c 89 bc 42 ff 9a bc
       -0.060603697 -0.12428635 -0.016775198 -0.018920545
0003e0 26 4a be 3d c1 1b 09 3d 2f cc e5 bb e8 1f ba bd
       0.092914864 0.033473734 -0.007012866 -0.09088117
0003f0 03 90 25 bd e2 ee f7 be 72 df 4c be ce ec bc be
       -0.040420543 -0.4842444 -0.20007113 -0.36899418

fc2.bias f4 [32]
000000 36 24 a2 3f 9d a5 52 3f 35 9f 5c 3e c9 3b 77 3f
       1.2667301 0.82283956 0.21545108 0.965756
000010 39 bc 15 3f 63 8e a7 3d 52 7d 1d 3e 91 ca 51 3e
       0.5849033 0.08181455 0.15379837 0.20487429
000020 91 0a 01 3f f9 40 d1 3e 3f ed 85 be 18 4e bf 3f
       0.5040675 0.40869883 -0.26157567 1.4945707
000030 3f 97 01 3f 9c cb 92 3f 26 e2 15 be 1e 4f ae 3f
       0.5062141 1.1468387 -0.1463705 1.3617895
000040 49 d5 06 3e 6d 03 f0 3d 95 05 cc bd 93 c6 ff 3c
       0.131673 0.117194034 -0.09962002 0.031222617
000050 cf b2 70 3c f0 f4 0d 3e 10 fb 25 bd e4 8f 13 3e
       0.014691069 0.13862967 -0.040522635 0.14410359
000060 58 1c f9 3e 7a 98 f3 3c 97 8e e6 3c 2b 78 8a 3f
       0.48654437 0.029735792 0.028144164 1.0817922
000070 ea 87 c0 bc a9 d2 9c 3e 03 52 07 be 8e 5f 2d 3e
       -0.023502309 0.3062947 -0.13214879 0.16930982

fc3.weight f4 [16, 32]
000000 c5 10 5b be 8f 6c c3 bc 58 a0 9a 3f 25 73 39 3d
       -0.21393116 -0.023855476 1.2080183 0.045275826
000010 7f ed 91 3e 14 40 36 be 0f b9 af 3f 71 9e 5b be
       0.28501508 -0.17797881 1.372835 -0.2144716
000020 c8 fa 92 be 85 cc 18 be 69 fd f3 bc 56 22 95 bd
       -0.28706956 -0.14921768 -0.029783921 -0.0728194
000030 f5 43 3f be c7 12 e0 be ec 6c 84 3d b9 77 44 bd
       -0.18678267 -0.43764326 0.06466088 -0.04796574
000040 4e df ce 3f 6e 99 2f 3f b6 1f 56 3c 38 c9 0c be
       1.6161897 0.6859349 0.013069084 -0.13748634
000050 df 6a 0f 3f b9 aa e5 3e df d9 e2 bd 0c 52 52 3d
       0.5602245 0.44856814 -0.11076712 0.051347777
000060 83 61 0f be 87 94 22 bd 85 5c 87 3e f7 84 ae be
       -0.14002042 -0.039692428 0.26437774 -0.3408582
000070 ba ef 8a bc 3a e4 db bc d7 23 b4 3b 84 f1 8f 3f
       -0.016960014 -0.026842225 0.0054974365 1.124558
000080 cf 93 2d be aa f5 24 be e7 29 05 be 73 32 14 be
       -0.16950916 -0.16109338 -0.13004266 -0.1447237
000090 5b bc 23 3d ed 7e 0d be 60 12 87 bd 4b 6b ca bd
       0.03997455 -0.1381795 -0.06595302 -0.09883746
0000a0 fb cb bf bc c4 02 6d bd 00 b1 29 be de d2 af bd
       -0.023412695 -0.057863966 -0.16571426 -0.085851416
0000b0 a1 f8 72 3b 3e bf 9e bd 2a b1 3b be 2a 4d c8 bd
       0.0037074464 -0.0775132 -0.18329301 -0.09780343
0000c0 2e 20 24 3d f1 f1 eb bd 16 ec 4a be 20 8b 36 be
       0.04006975 -0.11520756 -0.19816622 -0.1782651
0000d0 a0 92 9f 3d 57 e1 9a bd 86 55 7b be 6b b2 1e be
       0.077916384 -0.075625114 -0.24544343 -0.15497749
0000e0 6c 50 a5 bd 2e e0 d7 3c 87 ab bc 3c f6 f7 a6 3c
       -0.0807198 0.026352014 0.02303101 0.020381909
0000f0 cd cd aa 3b bb 24 6d 3d 9a 45 d3 bd f2 5e 2b be
       0.0052125216 0.057896357 -0.1031601 -0.16735438
000100 38 d2 3d 3d 38 87 59 bf 04 0f db be 9a ce 1b bd
       0.04634306 -0.8497195 -0.42784894 -0.038038827
000110 ae f4 97 3d 28 35 d9 3d 55 6e ad be bf e9 98 3e
       0.07419716 0.10605842 -0.3387324 0.29865834
000120 b1 8e fc 3d a3 f5 51 3d ab 1a 52 3e cb 9a 4c bd
       0.12331904 0.051259648 0.20517986 -0.04995231
000130 8c 6b f2 bc 71 98 3d be ca 2f 2a 3e 7e f6 07 bf
       -0.029592298 -0.18515183 0.16619793 -0.5311049
000140 73 30 f4 be bf 7a 25 be a7 52 2e 3e 23 a7 86 bd
       -0.47693214 -0.16160105 0.17023717 -0.065748475
000150 7f 00 75 bd bd ee 35 be 2d ae 1d 3e 29 ba 07 3e
       -0.059814926 -0.17766853 0.15398474 0.13254608
000160 01 fa e7 3d f9 45 33 3e d3 8c 0e be a5 a5 8b be
       0.11326981 0.17507161 -0.13920908 -0.27274814
000170 76 e7 ec bd 51 72 8d 3d f0 d8 18 3e 43 d9 a8 be
       -0.11567585 0.0690657 0.14926505 -0.32978258
000180 84 61 35 3e 75 eb 03 3e cd 13 41 bf 64 23 bc 3e
       0.1771298 0.12882788 -0.7542084 0.3674575
000190 86 21 a6 3e c1 07 b3 3d 82 c6 83 bf 2b b4 0c 3e
       0.3244745 0.08741713 -1.0294955 0.13740604
0001a0 00 6b cf 3b 61 e3 64 3e 05 21 9c bb 7f d2 e2 3d
       0.006329894 0.22352363 -0.0047646784 0.11075305
0001b0 e6 38 cc 3e 9d 65 91 3e e5 b6 48 be 43 2f 7b 3e
       0.3988716 0.28397837 -0.19601019 0.24529748
0001c0 da 38 b7 bf 54 71 7e bf 4a f8 9e be 8f 89 03 3f
       -1.4314225 -0.99391675 -0.31048805 0.5138177
0001d0 c9 a8 41 bf bf a0 4b bf a9 e2 1f bc fa f5 c4 3e
       -0.7564817 -0.79542154 -0.00975863 0.38468915
0001e0 4e cb 85 3d f7 8d e9 3c 51 1f 79 bf 2c 6a c1 3e
       0.06532918 0.028510077 -0.9731341 0.37776315
0001f0 f7 89 11 3f 6b ac f7 3e b3 c1 76 bd bb 03 3e bf
       0.5685114 0.48373732 -0.06024332 -0.7422444
000200 e5 ae 61 3d 04 bd ae 3e b0 e1 d8 be 96 03 db bd
       0.055098433 0.34128582 -0.42359686 -0.10694043
000210 cb 1f 0d 3d 58 a0 1c 3d e6 62 c6 be 41 32 c1 3d
       0.03445415 0.038238853 -0.3874733 0.09433413
000220 e6 fe 75 3d 64 7e e4 3c 00 d4 87 3d ee 8d 95 be
       0.060057543 0.027892299 0.06632233 -0.29209846
000230 68 aa 30 bd e5 97 04 be 1d 61 9e 3d 5e 7f 3c bf
       -0.043131262 -0.12948568 0.07733367 -0.73631847
000240 eb 7b f3 be 83 02 d2 be b6 24 9e 3d 42 4d ee bc
       -0.4755548 -0.4101754 0.07721846 -0.029089574
000250 6f 72 6e be 3e 0d 97 be 96 72 af 3d f4 65 0b 3d
       -0.2328584 -0.2950229 0.085667774 0.034032777
000260 14 52 57 3d 6e 4b 5b 3c 28 7d b2 be 9c 92 21 be
       0.05256851 0.013384683 -0.34861112 -0.15778583
000270 ca c0 98 3d 7a 7f de 3d 89 0e 76 3d 7a e2 b5 be
       0.074586466 0.10864158 0.060072456 -0.3552435
000280 ec 13 4f be e1 cd 40 bd b1 e0 d9 bd 17 a8 14 be
       -0.20222443 -0.04707134 -0.106385596 -0.14517246
000290 34 71 ac 3c 48 ef 57 bd e9 19 8c bc 26 94 be bd
       0.021050073 -0.05271843 -0.017102199 -0.09305601
0002a0 00 ce 12 be d0 f9 09 bd 84 88 7a bd c8 4f 2c be
       -0.14336395 -0.033685505 -0.061165348 -0.16827309
0002b0 f0 3f 73 3c 3f ef 3a be 6b f8 8e 3b 85 d1 b0 bd
       0.014846787 -0.18255328 0.00436311 -0.08633713
0002c0 96 be 2b be ec a0 b7 3d d2 28 71 be f4 2a 23 3d
       -0.16771922 0.0896624 -0.23550728 0.039835885
0002d0 c3 c9 63 3d 11 0c bd bc 0b 71 eb bb 04 28 c3 bd
       0.055612337 -0.023077043 -0.0071851066 -0.09529117
0002e0 86 d3 b1 bb f8 30 4a be 45 2a 89 3d dc f6 06 3c
       -0.005426827 -0.19745243 0.066975154 0.008237567
0002f0 8b 11 2b be d4 44 3c be 8d f7 bd bb 47 27 ad bc
       -0.16705911 -0.18385631 -0.0057973326 -0.021136893
000300 4d e3 29 bc 01 b5 36 be 6b 61 f2 bd 5d 72 5b ba
       -0.010369134 -0.17842485 -0.11834987 -0.00083712285
000310 af 9a 2f be 85 72 ba bc d1 d9 5b be 6f f5 98 bb
       -0.17148851 -0.022759685 -0.21469809 -0.00466793
000320 c1 87 05 bd 92 42 a0 bd 51 74 93 bd 9b 11 40 be
       -0.03260017 -0.07825197 -0.0719992 -0.18756716
000330 c0 2d 60 be a9 32 35 bb 66 68 c0 bd 00 82 5d bd
       -0.21892452 -0.0027648604 -0.093949124 -0.054079056
000340 70 15 5b be 0e ee 68 3d 20 5e 10 bd ac 5b c3 bd
       -0.21394897 0.05686765 -0.035246015 -0.095389694
000350 e5 28 96 bd 1d 9e 4d bd 6e 9f ae bd de 5b 8f be
       -0.07332019 -0.050199617 -0.085265025 -0.27999777
000360 7c b9 42 bd 08 dc 19 bd 09 7b a5 bd 37 af 02 be
       -0.047540173 -0.037563354 -0.08080108 -0.12762152
000370 7a 6a 4a be b0 ba 91 3d 88 f7 cd bd cd 27 23 be
       -0.1976718 0.07115686 -0.100569785 -0.15933152
000380 08 57 fe 3d 21 6c 56 3e 67 a5 5c be 0d b6 a9 3e
       0.12418944 0.20939685 -0.21547471 0.33146706
000390 b5 f3 81 3e 61 46 c8 3d 16 a1 19 bf 58 93 78 3e
       0.25381246 0.09779049 -0.6001142 0.24274957
0003a0 7c 93 07 3e 15 31 03 3e e3 e2 f1 bd ff 40 db 3d
       0.13239855 0.12811692 -0.11810853 0.107057564
0003b0 bc 32 d6 3d b6 0b 76 3e 3e 48 ca bd 56 7f 1d bd
       0.104588956 0.24027905 -0.0987706 -0.038451515
0003c0 d7 83 3b bf d0 57 45 bf a2 f8 c7 3d 15 25 6b 3e
       -0.73248047 -0.77087116 0.0976422 0.22963364
0003d0 17 8d 2f bf 84 90 d6 be 6d eb 7f 3e 64 3e 0f 3e
       -0.6857466 -0.41907132 0.24992152 0.13988644
0003e0 bd ba 07 3e 79 ef 60 3d bd 8a 76 bf d4 d7 33 3e
       0.13254829 0.05491588 -0.9630545 0.175628
0003f0 b9 a3 99 3e 81 17 02 3f 0c 0b 1e 3d 97 8e 38 be
       0.30007723 0.50817114 0.038584754 -0.18023144

fc3.bias f4 [16]
000000 93 8f 3c 3f fd 7a 83 be b5 ab 0f 40 ad 6c d1 3f
       0.73656577 -0.2567977 2.2448552 1.636129
000010 30 8b e1 3f e4 3a 87 be 14 62 54 be 96 fa ef 3f
       1.7620602 -0.26412117 -0.20740539 1.8748348
000020 31 5e d9 bf c1 2d e0 3f 53 17 02 40 f8 6e fc 3f
       -1.698187 1.7513963 2.0326736 1.9721365
000030 35 99 cd 3f da e7 f2 3f 8e cb 17 40 e5 85 8d bd
       1.606238 1.8977005 2.371799 -0.06910304

fc4.weight f4 [1, 16]
000000 1b d6 b6 3f 66 32 bb bd f8 48 49 3f 8b 98 ea 3e
       1.428409 -0.09140472 0.78626966 0.45819506
000010 bc df 6b 3f 12 52 32 bd 1a e5 a7 3c 6e f0 1f 3f
       0.92138267 -0.0435353 0.020494986 0.6247624
000020 68 f6 3b bf 61 ac 9f 3e 68 68 4e 3f 35 cb 25 3f
       -0.7342286 0.31186202 0.8062806 0.64763194
000030 78 2e e0 3e 6c fa 41 3f eb aa a2 3f 43 d9 b2 3c
       0.43785453 0.7577274 1.270841 0.021832114
